models/Vivien_2024/model_A.pt (torch, 590486 bytes, 171 tensors)

conv_enc_i_0.conv_entry.weight f4 [4, 1, 11]
00000000: 3685 3b3e 8cbb 063e 4c42 9a3d 1494 1b3e
00000010: 0ed9 6fbd d861 edbd 5333 82bc 3c2b a6bd
00000020: b5ce ec3c 7cd0 303c 2788 c5be 9770 56bd
00000030: ddfe fd3d 8e74 60be b35b bbbe 2b64 b93d
00000040: aa95 be3d 2670 d83d 78d8 603e 27ca 1c3e
00000050: bcb9 2fbe cdd6 743d dd59 cfbe e193 bbbd
00000060: c4ef 6abe a63c 0f3d d332 3b3e 364d 8ebd
00000070: 2e97 a23d 147b 843c 4834 2c3e 72da 313e
00000080: 5df6 083e 892a 2e3e 111c 8ebd 869e 6d3e
00000090: 2812 713e 3f6b d3bd 9991 153e 775b 223e
000000a0: 2edb 1abe b873 9ebe 379a f13c 5370 a2be
0.18312535 0.13157481 0.075321764 0.15193206 -0.05855661 -0.11590928 -0.015893614 -0.08113715
0.02890716 0.010791894 -0.38580438 -0.052353468 0.12402127 -0.21919462 -0.36593398 0.09052309
0.0930589 0.105682656 0.21957576 0.1531149 -0.17160696 0.059775162 -0.40498248 -0.09159065
-0.22943026 0.03496995 0.18281107 -0.069483206 0.079389915 0.01617197 0.16816819 0.17368487
0.1337523 0.17008413 -0.06938947 0.23205003 0.23542082 -0.1032319 0.14606322 0.15855204
-0.15122673 -0.3094766 0.02949248 -0.31726322

conv_enc_i_0.norm_1.weight f4 [4]
00000000: 2e27 603f f426 283f 2699 373f 81d8 373f
0.87559783 0.6568444 0.7171806 0.71814734

conv_enc_i_0.norm_1.bias f4 [4]
00000000: 9b91 2a3e a60c 963e e1d3 153f 60fa 083f
0.16657107 0.29306525 0.58526427 0.5350704

conv_enc_i_0.norm_1.running_mean f4 [4]
00000000: c4bd 24bd 794f a53c bfe3 debb d371 893c
-0.040220037 0.020179497 -0.006802052 0.016777908

conv_enc_i_0.norm_1.running_var f4 [4]
00000000: be29 963a d472 003a be4e 3a3a 939d 483a
0.0011456532 0.0004899923 0.00071070704 0.0007652875

conv_enc_i_0.conv_enforce.weight f4 [4, 4, 11]
00000000: 8005 9fbd 09a5 563d 288b ce3c a1b8 d73d
00000010: 3d7a 2dbe 2703 eabd b980 85bc ac52 043e
00000020: 7612 42be 6fcd 91bc e72d 30bd 5326 adbd
00000030: 992e a0bd f01f ad3d 39a3 c63b bdb6 82be
00000040: 375a 1ebd 3652 44be 299c 173d 0ada 26bd
00000050: 0102 bbbd 373d 433e 72ef ebbd 6014 38be
00000060: 840b 99bc 513f 82bd 1ba8 1abe 59ce 563d
00000070: 3781 edbb 635d 4ebe 8e63 31be f13d 03be
00000080: 7106 a5bd ae1a e3bd ef43 42be 0ea8 033b
00000090: b07e d53d eb5a c83e 837e 4e3e de53 143e
000000a0: 99e0 42be 8ef6 5b3d 2add 9b3e a303 07bd
000000b0: 75cc 88bc 7ff3 113c a67c 9fbd b33a 2fbb
000000c0: 8800 643d dfe0 2abe 93d1 bdbc 1dc9 6dbd
000000d0: 14a4 15be a605 b4be 02cb bbbd c9a8 813e
000000e0: e394 05bc e1c5 b23d 8925 0d3e 04a2 45be
000000f0: 2328 81bd 2505 03bd f024 8ebd 73c8 1e3e
00000100: 22c2 2fbd 7b60 9abb 52b4 b93e ba2c 463e
00000110: 9580 613e ff35 843e 44f4 ecbc b6f1 9cbd
00000120: 0321 73be f0c5 04be 56ac 823c e4b0 8a3d
00000130: 50e0 03be 9b0f 5abe f952 8d3d 9b37 00be
00000140: 07fe 39be 5e41 e4bd e885 febd 4c2b 97bd
00000150: f1df 8dbd 4497 bebd c854 e1ba 1286 4a3d
00000160: 6e4f aebb 23e4 e33d 4b3a 93be 55cf d13d
00000170: 1acb 503e b045 1d3e 10d4 84bd 4e77 98bd
00000180: a97f 773e 8369 bf3c 708a 533e 7fd0 0bbe
00000190: 21ed 54bd 6f4d 8bbd 91d6 49bc a96c 303d
000001a0: 7b92 093c 90c1 d63b 646f c1bd 686b 6bbd
000001b0: 7131 c43c e3c7 47bc 00f4 86be f894 0bbe
000001c0: b263 613d 8f89 20be a2be ec3c e1a0 283d
000001d0: d951 aabd 9f99 f2bd 4992 72bb d15f 4ebe
000001e0: a8eb 193e 7f2f bdbc b25b b5bd 77ee 64be
000001f0: f933 c2bd fe70 d6bc db2d 633d ebc5 bf3d
00000200: 08f7 a93e cd10 b5bd b05a f93b 3e7b 633c
00000210: 36f7 86bd 0e73 0c3e 5b03 3cbb 0c57 8f3d
00000220: bf21 573e 6af7 af3e 9396 51be 5979 933c
00000230: 3f0c ad3d 1f8c e83d 8a78 d53e eb94 51be
00000240: f00b 6fbd 6c2b 08bd 9b4e c93d ab5c 25be
00000250: 5954 af3c 3ee9 f23d 3d58 b1bd 6533 1e3d
00000260: 782e 82bd fdba 6c3e 40bb 37be d1a8 92be
00000270: 39d2 03be df3b 24bd c4d7 933c 942d d73d
00000280: 428d 173d bb16 8a3d 11dc 78bb 9a2e ddbd
00000290: 6b3c 7ebd 0562 46be 67f1 9fbd bcd2 08bd
000002a0: 330a 563d 937f 153e 4139 873d 8dbf ee3b
000002b0: 5738 d5bd b651 19be 79c2 77bd 5900 573d
-0.07764721 0.052403484 0.02521284 0.10533262 -0.16941161 -0.114263825 -0.016296731 0.12922162
-0.18952355 -0.017798154 -0.043012526 -0.084545754 -0.07821388 0.08453357 0.006061938 -0.25530043
-0.038660254 -0.19171986 0.03701416 -0.040735282 -0.091312416 0.1906632 -0.1152028 -0.17976522
-0.018682249 -0.06359733 -0.1510319 0.052442882 -0.0072480696 -0.20152812 -0.17323133 -0.12816598
-0.08057869 -0.11089073 -0.18971227 0.0020089182 0.10424554 0.39131865 0.20165448 0.14485118
-0.1903099 0.05370193 0.30442172 -0.032962453 -0.016699055 0.008908152 -0.07787447 -0.0026737868
0.05566457 -0.16687344 -0.023171222 -0.058053125 -0.14613372 -0.3516056 -0.0916958 0.25324085
-0.008153173 0.08729149 0.1378385 -0.19300085 -0.063064836 -0.031987328 -0.06940639 0.15506153
-0.04290975 -0.0047112084 0.36270386 0.19353 0.22021706 0.25822446 -0.028925069 -0.0766329
-0.23743062 -0.12966132 0.015951317 0.067720205 -0.12878537 -0.21295016 0.069005914 -0.12521212
-0.1816331 -0.1114528 -0.12427884 -0.07381305 -0.06927479 -0.093061954 -0.0017191404 0.049444266
-0.0053195274 0.11127498 -0.28755412 0.102446236 0.20389977 0.15358615 -0.0648576 -0.074446306
0.24169792 0.023365742 0.20658278 -0.13653754 -0.051983956 -0.06801879 -0.012319223 0.043072376
0.00839674 0.006553836 -0.09445074 -0.057475477 0.023949357 -0.012193653 -0.26358032 -0.13631046
0.055026717 -0.15677474 0.028899495 0.04116905 -0.083163925 -0.11845707 -0.0037013462 -0.20153739
0.15031302 -0.023093937 -0.0885538 -0.22356592 -0.09482569 -0.026176926 0.055463653 0.09363922
0.33196282 -0.08841095 0.0076096877 0.013884364 -0.065901205 0.13715765 -0.0028688523 0.06999025
0.21008967 0.3436845 -0.20467596 0.018002199 0.084496014 0.11354851 0.41693527 -0.20466964
-0.058360994 -0.033244535 0.09829446 -0.16148631 0.021402525 0.11860894 -0.08659408 0.038623232
-0.063565195 0.23118205 -0.17942524 -0.28644422 -0.12873162 -0.04009616 0.018047221 0.1050674
0.03699995 0.06742617 -0.0037972967 -0.10799904 -0.062069338 -0.19373329 -0.07809716 -0.033404097
0.05225582 0.14599447 0.06602717 0.007286018 -0.104111366 -0.14972576 -0.060488198 0.052490566

conv_enc_i_0.norm_2.weight f4 [4]
00000000: deb9 2f3f c1a2 343f e8b0 223f a393 433f
0.68642986 0.7056084 0.6355119 0.7639715

conv_enc_i_0.norm_2.bias f4 [4]
00000000: b965 163f 15e7 f33e dda7 2f3e 0238 20bd
0.58748966 0.4763724 0.17153879 -0.039115913

conv_enc_i_0.norm_2.running_mean f4 [4]
00000000: f16b 17bf 5408 f6be 30e8 a9be 76ad b1bd
-0.5914908 -0.4805323 -0.33184958 -0.08675663

conv_enc_i_0.norm_2.running_var f4 [4]
00000000: 209c e93e c705 0b3f 9f46 903e 5f2d e13e
0.45626926 0.5430569 0.2817888 0.43979928

conv_enc_0_1.conv_entry.weight f4 [8, 4, 11]
00000000: 496b 6dbe dbc8 debd eb43 38be ba6a c13c
00000010: 378b 8fbd 63e5 933d e93d cabd 31a7 b93b
00000020: 2bc4 613e 0d8c 023e 3324 5b3e c99d a43d
00000030: 8084 9e3d db3a 093e ebb1 fbbd 4bd0 c6b9
00000040: b230 ca3d 53ea 693d 04fc 613d baea 5a3c
00000050: 1588 f0bd 97e3 81be f6ea 0ebe 6dc1 863d
00000060: 80aa 10be 994c 4bbe 7ff9 f5bd 2f04 2abd
00000070: 0a4e 4b3d d33e 5bbd 5043 303e 617d fc3c
00000080: 561b 323d 29f1 b0bd b67e 243e fbfa 6e3c
00000090: 5f21 2fbe 08f2 ebbd 5df8 cdbd 91e0 c8bd
000000a0: 4e62 47be 7326 d83b a32e a83d 4323 443c
000000b0: eaf2 2dbe 68f7 483c df71 0a3e a937 e0bc
000000c0: c11e 13bd 7034 2c3e 61b3 1a3d cedc 7dbd
000000d0: c2a9 98bd a635 8a3e 6157 f73d d5af 95bd
000000e0: 3e6d 4a3d 8643 553d 39a4 433c d476 843d
000000f0: 32b0 85bd a4de 02be edd4 c83c 5253 98be
00000100: a4a7 bfbe ac6f 8fbe ea8b 843d b0a7 e5bc
00000110: 91d2 1fbb 2737 bebc 65b4 d23d 8aaf 04bd
00000120: 0117 3bbe f099 9a3c 9f54 193e aebb 733e
00000130: 06d0 083e aede ee3c 8754 04be 0d13 a1bc
00000140: a043 20bd c18e c0bd 2e52 303e 14a0 a3bd
00000150: 138c 933d b681 6e3d 8974 253e 20c1 ce3d
00000160: fedf 53bd c25b 75be 8b57 19be ee20 bf3d
00000170: 4c08 c03d 8cdc 96bd 8def 003e fef3 1b3e
00000180: 4c46 3ebe 43b7 79bc feb4 e23c d4bb 123e
00000190: 2c36 e2bd 2d5b 393d 2f1c 353e 05d4 e13d
000001a0: 911c eebd b72f 1dbe 5bcd e1bd 534f 3bbe
000001b0: 79f1 22bd 1dd2 13bd ded6 79be 2211 e7ba
000001c0: 9748 fdbd a92a 853d 2c39 2d3d 41e3 4d3e
000001d0: af95 e0bb 8064 f0bd c5df 79bd 9a71 fcbd
000001e0: b961 f73d 3d4b 57be ea15 51be 6ee5 39bc
000001f0: 6a98 d93c a21c 50bc e38b 863d 5331 013e
00000200: 9b69 e63d 81c7 bebd b034 76be 4bf9 8a3d
00000210: 0d2f aa3e 43da 963e 4d36 143e 4bd5 a43d
00000220: 68fe 63be a292 08be 7ad1 f1bd 8568 9ebc
00000230: 8ee3 c3bc 1bfd e4bd 2569 41be 66a5 2bbe
00000240: e121 16bd 2b17 3ebd 6099 3cbc 949c 25be
00000250: 3c79 19bd 0110 1bbd 8c52 433e 5c3b e33d
00000260: fc8d 96bc cb87 2b3e cbd9 4ebe 3000 ee3c
00000270: efad 883d 6f0f 42be 2e77 1ebc e106 993d
00000280: 2431 523d e3ba 92bd 6340 7ebd b913 5dbd
00000290: fcab 7f3d 0978 c9bd 812d 0bbe 5309 a6bc
000002a0: f716 33be cb0d 49bd bc14 b03b 2f85 8c3c
000002b0: af26 23be 14b1 273c fec8 1abc b92e db3d
000002c0: 279e a2bd ecf0 b6bc cfd0 d33b 8839 59be
000002d0: 7a83 a13d c688 63be a743 3bbe 22c8 9b38
000002e0: e6b1 38bc 6373 5abc b89c 40be e948 70bd
000002f0: ad8a 5bbc ee7d 0e3d 6cb4 0ebe 8a94 b8bc
00000300: 0106 823e 4d28 85bd 5e98 afbd e329 523e
00000310: 42e5 e13e 31d3 213e 72ab 5bbd 05a2 13be
00000320: e5f0 023e d3fd e8bc b5a6 aebd bac9 2abe
00000330: 2f61 37be 2058 d83d 67b9 7b3c 7bce d3bd
00000340: e2ec 72bc 9447 023e e280 5bbd 92e0 273d
00000350: 8794 91bd 2354 fabb 1495 e6bd f142 6fbd
00000360: 4749 ebbc f9b1 8abd e374 46bd 4a78 603d
00000370: 70b6 0a3e c673 0cbe 6e2b 76bd 5bb7 c73d
00000380: 31f9 463e 72cf 0d3e 99f5 a9bd 6039 b7bd
00000390: 0a3f ec3c b306 013c 0122 7bbc 1461 843d
000003a0: 5f48 9b3d 04a2 883d 3882 053e 2664 ac3d
000003b0: b000 083d 308e 00be d2a0 0fbe 6757 6ebe
000003c0: a4d5 a3bb e5b8 13bb 1e4f 98bd 811d 84be
000003d0: 8c12 2f3e f0e8 8c3e dad3 593e 70b7 fabb
000003e0: 1bb1 95be 2dd8 eebd afee 003e a71a a2bd
000003f0: e75c 6f3c 7abc 9a3d 0ddd bb3c c4f0 fd3d
-0.23185457 -0.10878154 -0.17994659 0.023610462 -0.07008975 0.072214864 -0.0987509 0.0056656827
0.22047488 0.12748738 0.21400528 0.08037908 0.07740116 0.13401358 -0.122897945 -0.00037920693
0.09872569 0.057108235 0.05517198 0.013361627 -0.117447056 -0.2536895 -0.13956818 0.06579862
-0.1412754 -0.19853438 -0.12010478 -0.041507896 0.04963497 -0.05352671 0.17213178 0.030821504
0.0434831 -0.08639748 0.16063961 0.014586206 -0.17102574 -0.11520773 -0.10057137 -0.09808458
-0.19471094 0.0065963804 0.0821202 0.011971298 -0.16987196 0.0122660175 0.13520001 -0.02737029
-0.035918 0.16816878 0.037768725 -0.061978154 -0.07454254 0.26994056 0.12077213 -0.07308928
0.049420588 0.05206635 0.011941009 0.06467977 -0.06527747 -0.12780243 0.024515593 -0.29751068
-0.37432587 -0.28014886 0.06471999 -0.028034061 -0.0024386982 -0.023219658 0.10288314 -0.03239397
-0.18270494 0.018872231 0.14973687 0.23802063 0.13360605 0.029158916 -0.1292287 -0.019662404
-0.039126992 -0.09402228 0.17218849 -0.07989517 0.072044514 0.05822917 0.16157736 0.100954294
-0.051727287 -0.23960784 -0.14974801 0.09332453 0.093765825 -0.07366285 0.12591381 0.15229794
-0.18581504 -0.015241447 0.027674194 0.14329463 -0.11045489 0.045252968 0.17686532 0.11026768
-0.11626542 -0.15350233 -0.110254966 -0.18291979 -0.039781068 -0.03608905 -0.24398372 -0.0017629007
-0.12367361 0.065022774 0.04229085 0.20106222 -0.006853781 -0.11737919 -0.06100442 -0.12326355
0.12079186 -0.21024795 -0.20418516 -0.011346204 0.026561935 -0.012702139 0.0656965 0.12616472
0.112506114 -0.09315396 -0.24043536 0.0678583 0.33239022 0.29463395 0.14473839 0.08048495
-0.22265017 -0.13337186 -0.118075326 -0.019336948 -0.023912217 -0.111810885 -0.18887766 -0.16762313
-0.036653403 -0.046408813 -0.011511177 -0.16173011 -0.037469134 -0.03785706 0.19074458 0.11095306
-0.01837825 0.1675102 -0.20200269 0.029052824 0.066738 -0.189512 -0.009671969 0.07472015
0.051316395 -0.07164552 -0.062073123 -0.053973887 0.062419876 -0.09837348 -0.13591577 -0.020268118
-0.17489229 -0.04908542 0.0053735655 0.01715335 -0.15932725 0.01023509 -0.009447334 0.10702271
-0.079403214 -0.022331677 0.006464101 -0.21213353 0.07886405 -0.22220144 -0.18287526 7.4282536e-05
-0.011272883 -0.013333174 -0.18809783 -0.058663283 -0.013399762 0.034788065 -0.13936013 -0.022531766
0.25395206 -0.065018274 -0.085739836 0.20523791 0.44120222 0.1580322 -0.0536303 -0.14417274
0.12787206 -0.028441345 -0.085278906 -0.16678515 -0.17908166 0.105636835 0.015364028 -0.103421174
-0.014826985 0.12722617 -0.05358971 0.04098565 -0.071084075 -0.0076394244 -0.11258903 -0.05841345
-0.028721465 -0.06772227 -0.048451316 0.054802217 0.13546157 -0.13716039 -0.06010001 0.09751769
0.19430996 0.13848665 -0.08298797 -0.0894649 0.028838653 0.007875132 -0.015327931 0.06463829
0.07582163 0.06671527 0.13037956 0.08417539 0.03320378 -0.1255424 -0.14026192 -0.23275529
-0.004999833 -0.0022540626 -0.074369654 -0.2580376 0.17096919 0.27521467 0.21272221 -0.007651262
-0.29236683 -0.11662326 0.1259105 -0.0791524 0.014609552 0.0755548 0.022932554 0.12399438

conv_enc_0_1.norm_1.weight f4 [8]
00000000: bd7b 553f 7bba 373f 1d3f 553f 19c0 643f
00000010: 4e39 3f3f fc7a 473f 56bb 5b3f 41fb 203f
0.83391935 0.7176892 0.8329943 0.8935562 0.74696815 0.77922034 0.85832727 0.62883383

conv_enc_0_1.norm_1.bias f4 [8]
00000000: 3ee2 b7bd 05a3 8bbd 0438 3e3e 9ac1 83be
00000010: 0fd5 08be 7faa 6bbe 7dd8 fb3e 2875 b73d
-0.08978699 -0.06818203 0.18576056 -0.25733644 -0.13362525 -0.23014258 0.49188605 0.08957893

conv_enc_0_1.norm_1.running_mean f4 [8]
00000000: bf8f 90be 19ac e8bd e507 0fbf 8189 91be
00000010: a65a dbbe f23b 653e 1fc7 2fbe f714 bebe
-0.2823467 -0.1136095 -0.5587142 -0.2842522 -0.42842597 0.22386149 -0.17165802 -0.3712537

conv_enc_0_1.norm_1.running_var f4 [8]
00000000: 251d ac3e 3584 f93e 513e 713e fe4c 783e
00000010: 9a5a cf3e 87c1 4c3e 0bfa 833e 70c3 063f
0.33615986 0.48733678 0.23558928 0.2424812 0.4049881 0.199957 0.25776705 0.52641964

conv_enc_0_1.conv_enforce.weight f4 [8, 8, 11]
00000000: d1ec 71bd 3aeb 903d 83c5 813e 4b32 6c3d
00000010: 6ede c63d 3dfd 59bd 1b12 3dbe c951 83bd
00000020: 475a 9dbd f57e d4bd 0382 6bbb 9c2f 8abd
00000030: ad0f aebd e589 1b3c 68c6 0e3b 6acc 3abc
00000040: 79a7 75ba 04a9 04bc ab43 273e e47e 50bc
00000050: c84c b73d 9180 d13d 3b35 42be eb10 bd3d
00000060: 0d7f 35bd 89d3 58be 153d 993d 180d b33e
00000070: 47d1 c73e 7e3c 7bbd e931 1dbd d112 c53c
00000080: 164d 443c 2c79 0cbb 2296 233d bbd1 8cbb
00000090: ecaf e2bd 4915 86be 35b4 a8be ce70 97be
000000a0: 4897 a33c 92a6 e23d dacd ea3d e6d2 f73d
000000b0: 6406 0f3d fbb3 d23d 4714 d3bc 0e9a c43d
000000c0: bbed b73d 4a1c a03d 935d dcbd c5b2 c63c
000000d0: 8216 b5bd 4e5e e8bd 6635 8bbd 161c c03c
000000e0: 4be3 cd3d 95df fbbd 9e07 78bd c8b9 aebd
000000f0: d3cb 783c 2cd5 003e 7f05 ed3d b16e 9abc
00000100: b1be 753d 90ca b5bd 7f0a 6d3e 625d 29be
00000110: f612 52be c958 c5bc a901 2bbe 204e 03be
00000120: 8710 553e 3dc4 a93d c931 29bc ee34 35be
00000130: c90a 793d ad5e 29bd 898c 4cbe 357c 17bd
00000140: 6686 eabd 43c1 263d 3f19 083d 8225 fabd
00000150: 559d 5d3c 0f92 93bc 0ecb cb3d 3a53 003d
00000160: 8e62 62bd faee f3bd b992 77bd b79f 8dbe
00000170: db6f abbd 1c0d 4bbe bfa3 c2bd 58eb 3dbd
00000180: 5be0 fbbd f353 11be ac11 febd 0fef 083e
00000190: 1cd4 10bd 1d36 323d 6680 263e d20f 823d
000001a0: 4b7f d5bd e63b 95bc f247 f1bc 32b5 abbd
000001b0: fce2 e4bd 093c 83be 7cfc 01be d0eb 5dbd
000001c0: 0661 123d a543 9f3d 2f1b 4c3c 8c0b 373d
000001d0: 981e cabd 6eeb 83be a8c6 25be a971 403c
000001e0: 43a8 0bbc ec7a 0b3e c96c 9e3d b954 c23c
000001f0: 9a5d e43c bc2a a3bd 99a8 d13d f19f 273e
00000200: f07c 8e3e a076 883e 3e37 3f3d b0aa 3d3e
00000210: d1f8 bbbd d3cf 63bd ff4f 503d 0192 55bd
00000220: 6a97 0e3c da06 673d 1dba 403d 6401 81bd
00000230: 5e25 cc3d 73b6 873d a716 913d c64c cebd
00000240: 15f6 653c 7e34 14be 1a3d c6bc 8303 553e
00000250: 72e3 0a3e c8d7 ccbd 2d15 c03d 9b73 6abc
00000260: 6fe2 ebbb 1178 b23d 1659 aebd c54d acbd
00000270: ed70 ecbd 536c ba3d 20e6 a83e 8009 903d
00000280: 612d 9ebd d1c6 223e afb3 89bb 6749 473c
00000290: b113 0abc 5dcb b43d 0d0b d93d 33e7 073e
000002a0: 0c6b 1b3d b0c4 943d dc7a 5d3c c438 c33d
000002b0: d0e0 083e 4673 a43c 8142 04be 8f0c d6bd
000002c0: 6690 6dbd d315 11be c9fc 19be c7d1 50be
000002d0: a9ce eebd 3b38 8a3d 15aa ba3d a746 843d
000002e0: 9f13 f43d c1cf 453e 0426 553d f212 03be
000002f0: 5ae6 af3d ecd5 853c d2de ab3c 110c 4c3c
00000300: 008f 593c 4300 d9bc 7e73 78bd 31bc ec3c
00000310: df51 19bd 597d 56bd 223f 16be ab04 b53d
00000320: 1aa7 363d 68a4 a53d 0bed 50bd f2e6 52be
00000330: f5a8 3fbe 18bf 1f3e 35d2 39bd 97db 88bd
00000340: 1bc9 ff3d 52a1 573e 5c20 763d 4f4d d63d
00000350: 7148 c53d ec3a c03b 1413 8e3e a7dc 2f3e
00000360: 0bab bebc 15ce 2dbc d260 aabd d605 30bd
00000370: 93ec 4bbc caf1 35be 8571 b73d f46c 48bc
00000380: 6bcf aa3d 2e12 7a3d 8e49 4d3e e8bc 253c
00000390: 0f41 023d bf54 113e 6464 2c3d 18c0 93be
000003a0: 6c49 9abe bc50 cdbd 4c8e 283d 76f2 9abc
000003b0: 7e3f 293d bd1d 603c 5000 77be 8bfa 1cbe
000003c0: c64a 70be c08e 05be ddec c9bd e8d5 903b
000003d0: dbf5 4c3e 370d 533e 764a 1bbc baa3 133e
000003e0: a5de d9bd 72b6 26be c62e bb3c 9064 bf3d
000003f0: 7dea 34bd 5b3c fd3b 5855 eb3c 562f a4bd
-0.059063736 0.07076116 0.25346002 0.05766515 0.09710394 -0.053220022 -0.18463938 -0.06412084
-0.07683235 -0.10375778 -0.0035935647 -0.06747362 -0.08499084 0.009493326 0.002178574 -0.011401275
-0.00093709637 -0.008096937 0.16334407 -0.012725566 0.08950192 0.102296 -0.18965618 0.092317425
-0.04431062 -0.21174444 0.074823536 0.34970927 0.39026853 -0.061336987 -0.038377676 0.024056824
0.011981269 -0.0021434529 0.0399381 -0.0042974628 -0.11068711 -0.26188114 -0.32949987 -0.2957825
0.019969597 0.11066927 0.11465044 0.121007726 0.034918204 0.10288235 -0.025766505 0.09599696
0.0898089 0.07817896 -0.10760035 0.024255166 -0.08842184 -0.11346112 -0.06797294 0.023450892
0.10053118 -0.12298504 -0.06055414 -0.08531529 0.015185314 0.12581319 0.11573314 -0.01885161
0.05999631 -0.08876526 0.23148535 -0.16539529 -0.20515046 -0.024090188 -0.16699852 -0.12822771
0.20807086 0.082893826 -0.010326811 -0.17695972 0.0608013 -0.041350055 -0.19975485 -0.036983687
-0.11451416 0.040711652 0.0332272 -0.12214185 0.01352628 -0.018013982 0.09950839 0.03132937
-0.05526977 -0.119108155 -0.06044266 -0.27660915 -0.08370944 -0.1982922 -0.09503888 -0.04636702
-0.12298652 -0.1419218 -0.124057144 0.13372444 -0.035358533 0.043508638 0.16259918 0.06350674
-0.1042467 -0.018217038 -0.029453252 -0.0838417 -0.11176106 -0.2563174 -0.12693971 -0.054179966
0.03573706 0.07776574 0.012457653 0.044688746 -0.098691165 -0.25765556 -0.16189063 0.011745849
-0.008524003 0.1362111 0.07735593 0.02372204 0.027876664 -0.07967135 0.102372356 0.16369607
0.27829695 0.26653004 0.046683542 0.18522143 -0.09178317 -0.05561812 0.05085754 -0.052141193
0.008703092 0.05640302 0.04705249 -0.06299093 0.09968065 0.06626596 0.07084399 -0.10073237
0.014035721 -0.14473149 -0.024199057 0.20802121 0.13563326 -0.100020945 0.09379039 -0.014309789
-0.007198624 0.08714307 -0.085130855 -0.08413271 -0.115449764 0.091026925 0.3298807 0.07033062
-0.07723499 0.15896155 -0.004202328 0.012163497 -0.008427546 0.08827851 0.10597811 0.13271789
0.037943885 0.07264078 0.0135180615 0.095323116 0.13367009 0.020074498 -0.12915994 -0.10451614
-0.057999037 -0.14168482 -0.15037836 -0.20392524 -0.11660511 0.06749006 0.09114472 0.06458788
0.11917805 0.19317533 0.052038208 -0.12800196 0.08588858 0.016337357 0.020980272 0.012454049
0.013278723 -0.026489383 -0.060657017 0.02889833 -0.037431594 -0.052365635 -0.14672521 0.08838781
0.044592954 0.08087999 -0.05100731 -0.20595911 -0.18716796 0.1560024 -0.045366485 -0.066825084
0.1248953 0.21057633 0.060089454 0.10463964 0.09632958 0.005866399 0.2774893 0.17174016
-0.023274919 -0.010608216 -0.08319248 -0.042974316 -0.01244654 -0.17768016 0.08957199 -0.012233008
0.08340343 0.061052494 0.2004759 0.01011584 0.031800326 0.14192484 0.042087927 -0.28857493
-0.3013414 -0.100251645 0.04115133 -0.018914443 0.041320316 0.013678965 -0.24121213 -0.1532995
-0.23466024 -0.13042736 -0.09859631 0.004420031 0.20015661 0.2061051 -0.009478202 0.14417925
-0.10638169 -0.16280535 0.022849452 0.09345353 -0.044168938 0.007728142 0.028727219 -0.08016841

conv_enc_0_1.norm_2.weight f4 [8]
00000000: 0f7e 833f 6388 123f 736b 423f fde8 523f
00000010: 2a45 273f 754b 2e3f 9e01 833f ea2b 2e3f
1.0272845 0.5723936 0.75945204 0.8238676 0.6533991 0.6808389 1.0234869 0.6803576

conv_enc_0_1.norm_2.bias f4 [8]
00000000: 463a 373e 8fdc 9a3e 1fd1 d63c 98be d03b
00000010: 7138 833e 435c bd3d 518f de3e ba18 30bd
0.17893323 0.30246398 0.026222764 0.006370377 0.25629 0.09246113 0.43468717 -0.04299233

conv_enc_0_1.norm_2.running_mean f4 [8]
00000000: 827d 3ebe c8d2 543d a2ed 50bc 6082 51bd
00000010: 343f 10bf 9ff3 1abe f7fe 29bf fe29 dc3e
-0.18602565 0.05195883 -0.012751969 -0.051149726 -0.5634644 -0.15131997 -0.6640467 0.43000787

conv_enc_0_1.norm_2.running_var f4 [8]
00000000: 3cf1 553f 28d7 603f da2e 403f 94ea 2f3f
00000010: 462f 2f3f 3a0d 303f eda0 a83f ed4a 783f
0.8357122 0.878283 0.7507149 0.6871731 0.6843151 0.6877018 1.3174111 0.9698933

conv_enc_1_2.conv_entry.weight f4 [16, 8, 11]
00000000: a7d4 a8bd abc1 d13b 6afb 74bd eb17 21bd
00000010: b3c2 abbd ec1c 66be 2b81 d4bc bde3 393e
00000020: 13d5 9c3d 75d5 76be ef65 51be 34e9 e3bc
00000030: 0a1c 40bd d53b 99bd be1b a3bd 1c84 10bd
00000040: 7205 60bd cf75 d6bd 742e 813d e15e 1f3e
00000050: 7e38 493e 2301 5bbe 2c3f 48bd d6a5 c5bd
00000060: 82f5 1dbd 99f1 c8bb d981 b73d 253d 9b3d
00000070: 731b 253e 75b3 c93d 5c07 df3c 7851 903e
00000080: e76f 733d 5e2b b4bb c51e 03be 8508 9dbe
00000090: 6aeb a7bd 8e09 bfbd 920a ecbd 8bd6 04be
000000a0: 9e32 8d3e ea9f bc3d 1ed7 83be fc94 13be
000000b0: 5207 7cbd 4a0a c4bd 9e22 9bbd ee09 a33d
000000c0: 515e 5e3d 2049 4bbe 7bfe 4abe 12ce 06bd
000000d0: cb12 a9bd bfdd 80bd ef3e 943b 45ff 91bd
000000e0: e7bf a5bd be5f 243d f57c debd df0e 7d3b
000000f0: 839a bd3c 07c3 573d 422b 52bd fd70 243e
00000100: e11c f63d dba8 bb3c 5dc6 07be a9fe 1abe
00000110: 1a25 09bc 2f29 923d 0ca9 f23d 09ed e93d
00000120: ea27 9cbd 6710 4bbe 3c62 3dbe 0c76 dc3d
00000130: 0c5f 8639 5a33 2dbd f344 453d cd0a f33b
00000140: 1aa9 a9bd cca4 d9bd 2aac ba3d 18c3 203e
00000150: c13a 2bbe 9eb0 2abd 9618 043e f216 263c
00000160: 2c16 de3b 43ba ad3d 63e0 583c 7548 acbd
00000170: e047 4cbe 9c0d f53d cad5 7c3e e417 ebbd
00000180: b9eb cabd ad96 d9bd 444a 80bd 748d bebd
00000190: 0090 64be 33c0 473d 53ee 81be ff1c 95bc
000001a0: 4954 1fbe 9227 c63d 09c8 a13d a57b 3a3d
000001b0: 1f1f 813d 84d2 883d f381 b0bd f229 8d3c
000001c0: 6e51 d1bc 6db4 983d 05da 4b3d c95f 903c
000001d0: 78ac b7bd 23fc ec3c f779 20bd ee8a 43bd
000001e0: 16c0 183d 11dd 38be 047a 423b c908 bfbd
000001f0: 9e98 c33b c375 7bbe a830 9a3d 9138 02bd
00000200: 20b3 2bbe 9995 37be 9bee a2bc b85a 863c
00000210: 90f9 08be 455c f53d fdb7 a13d 5cef 8c3d
00000220: abfb 31be 7343 bdbc 2ee7 f73c 8371 02be
00000230: f464 febd cabd 6cbe a338 51be 4322 8ebe
00000240: bd2d 4939 5f07 d0bd 2309 75bd 3eb6 3dbd
00000250: 5376 77be 4cc1 01be f860 dfbd 61e8 c1bd
00000260: 090d 76be 80b2 34bd aba8 493e dcac 9e3d
00000270: 32e6 213e 1085 3b3e b7f1 693d bc9e 24be
00000280: d6c3 1abe 092f 65bd ec60 01be 7096 4fbe
00000290: 71a3 83be 86ca 14be 2b9f 7ebc 96f8 26bc
000002a0: 2eee 8dbd eb6e 1e3e 3714 2abd 60a8 1ebc
000002b0: 100c fe3d c991 023e 0a74 423d 2303 bc3d
000002c0: 9c87 153e 5b3b 453d 3267 91be b36d 21bd
000002d0: b545 433e 50f0 623d 332c ccbd c416 7c3d
000002e0: fe56 18bd 8e3c 693d 2f64 52bd 4424 9e3d
000002f0: f81a 6e3d 58eb eabd 5f33 26be 8cfb 56be
00000300: 4dec 853d 567c bdbd 1d0d 35bd 331c 94bc
00000310: 2cda a93b 8259 d73d 05e3 49bd 940a e63d
00000320: 171b 463e 7120 f9bd ff92 6fbe 5012 3cbe
00000330: 5a0c d5bd cee9 21be 1423 a93c 5ccd 47be
00000340: 7a0d d9bd 4a71 e5bb 4a2a 08be 829c c1bd
00000350: b1fb 3ebe 7a3d 103e c246 0ebe 174d ab3d
00000360: d745 3abd 5dc9 c1bd 0ae2 a43c 4017 2dbe
00000370: 8152 b83d b8e1 6b3d 5b7e f0bd 7b6f 8c3c
00000380: 128f 4e3e 4961 9a3d 0192 ec3b dfa6 193a
00000390: 43aa 25bd 1294 ad3d a5f0 053b b2ff ce3b
000003a0: edfb 4a3c 668a a63d 1d46 f0bd 7522 87be
000003b0: ac5e 01be 0d1b f0bd 074b 26bd f218 4ebd
000003c0: e71e 44bd fc02 00be 5524 50be ce15 973d
000003d0: 3d24 423e e949 a53d 5821 403d c68b 70bc
000003e0: fab3 d7bd 290a 1c3c 6c67 ca3d 80b4 cf3d
000003f0: 997b 043e f26a 843c d9cf 213c 02f6 fbbd
-0.08243685 0.006401261 -0.05981008 -0.03932945 -0.08386745 -0.2247197 -0.025940498 0.18153282
0.07657828 -0.24104865 -0.20449041 -0.02782116 -0.04690174 -0.07482115 -0.07964276 -0.03528224
-0.054692693 -0.10471689 0.06307688 0.15563537 0.19650456 -0.21387152 -0.04888837 -0.09650771
-0.038564213 -0.0061323163 0.08960313 0.07580022 0.16123752 0.09848682 0.027225189 0.28187156
0.05943289 -0.005498334 -0.12804706 -0.30670562 -0.081991985 -0.09327994 -0.115254536 -0.12972467
0.2757768 0.09210189 -0.2575006 -0.14412302 -0.06153042 -0.09572275 -0.07574962 0.07960878
0.054289166 -0.19852114 -0.19823639 -0.032911368 -0.082555376 -0.06292295 0.004524104 -0.07128767
-0.08093243 0.04013037 -0.108636774 0.00386136 0.023144966 0.052676227 -0.051310785 0.16058727
0.12017227 0.022907665 -0.13259263 -0.15136208 -0.008370662 0.071367614 0.118486494 0.11422164
-0.076248005 -0.19830476 -0.18494505 0.10764703 0.00025629287 -0.0422853 0.04816146 0.007417059
-0.08284207 -0.10627136 0.09114869 0.15699422 -0.16721632 -0.04167234 0.12900004 0.0101373065
0.0067775454 0.08482792 0.013237092 -0.084122576 -0.19949293 0.119654864 0.24690929 -0.11479166
-0.09908242 -0.10624442 -0.06264165 -0.09304324 -0.22320557 0.04876728 -0.2537714 -0.018202303
-0.15559496 0.09675516 0.07899482 0.045528073 0.06304764 0.06680778 -0.08618536 0.017231915
-0.025551524 0.074562885 0.049768467 0.017623799 -0.08968443 0.028928822 -0.039178815 -0.047739916
0.037292562 -0.1805308 0.0029674778 -0.093278475 0.005969121 -0.24556641 0.07528812 -0.031792227
-0.1676755 -0.1792816 -0.019889167 0.01640068 -0.1337645 0.1198049 0.07896421 0.06881592
-0.1738116 -0.023103451 0.030261602 -0.12738614 -0.12421599 -0.23119274 -0.20431761 -0.27760515
0.00019185893 -0.10157656 -0.059823167 -0.046316378 -0.24166231 -0.12671393 -0.10907167 -0.09468151
-0.2402841 -0.044115543 0.19693248 0.07747814 0.15810469 0.18312478 0.057115283 -0.16076177
-0.15113768 -0.05595306 -0.12634629 -0.20272231 -0.25710633 -0.14530382 -0.015540878 -0.010191103
-0.06930195 0.15472 -0.041523185 -0.009683698 0.124046445 0.12750925 0.047473945 0.09180286
0.14602512 0.04815231 -0.28399044 -0.039411258 0.1906956 0.05540496 -0.09969368 0.06154515
-0.037192337 0.056942515 -0.051365074 0.07721761 0.05813119 -0.114706695 -0.16230534 -0.20994395
0.065392114 -0.09252231 -0.04420196 -0.018079853 0.005183479 0.10515119 -0.04928877 0.11232486
0.19346271 -0.12164391 -0.23395918 -0.1836636 -0.104027465 -0.15811846 0.02064661 -0.19511932
-0.105982736 -0.0070020305 -0.13297382 -0.094536796 -0.186507 0.14085951 -0.1389418 0.08364313
-0.04547676 -0.09462235 0.020127315 -0.169034 0.09000111 0.05758831 -0.117428504 0.017143002
0.20171764 0.07538087 0.0072195535 0.00058613525 -0.040445577 0.08475508 0.0020437625 0.0063171024
0.012389165 0.08131866 -0.11732123 -0.26393476 -0.1263377 -0.117239095 -0.040598895 -0.05031676
-0.047881033 -0.12501138 -0.2032636 0.07377206 0.18959136 0.08070738 0.0469068 -0.014681762
-0.10532375 0.009523907 0.098830074 0.101418495 0.12937774 0.016164277 0.009876215 -0.12302782

conv_enc_1_2.norm_1.weight f4 [16]
00000000: 98ab 2a3f 3608 373f 9a74 4e3f f5a2 353f
00000010: 4514 4c3f b9e3 413f 2142 b23f 3ce1 313f
00000020: 0f9a 2b3f 4bcb 223f 6c3b a93f c02e 2f3f
00000030: 3ed6 2c3f d86e 1b3f 1c75 133f 957f 693f
0.6666808 0.71496904 0.8064667 0.7095178 0.7971843 0.757381 1.3926431 0.69484305
0.6703195 0.6359145 1.3221259 0.6843071 0.6751441 0.6071601 0.5760057 0.912103

conv_enc_1_2.norm_1.bias f4 [16]
00000000: 020b 97be f9f9 aebd 48ef 5bbd 7719 72be
00000010: 677c b53c 6bc8 18bb c6ff 0fbd b3fb 82bd
00000020: c743 b8b9 4f1d 3e3d 8d92 55be 3ae8 05be
00000030: 621d e8be 49e9 4fbd b18d 8bbe 2e48 b3bc
-0.29500586 -0.08543772 -0.053694993 -0.23642527 0.022154046 -0.0023312818 -0.035156034 -0.06395664
-0.00035145713 0.04641467 -0.20856686 -0.13076869 -0.45334917 -0.050759587 -0.2725654 -0.021885004

conv_enc_1_2.norm_1.running_mean f4 [16]
00000000: c507 8bbf 8d25 b8bf a2ca 0bbf 899e 0440
00000010: c6e2 42bf 5e61 6fbf 354d 3ebf c3f4 76bf
00000020: 9697 18be 1b49 ce3e c79b 8abf 1f32 68bf
00000030: 9dda b23e 654e bcbf 4882 ccbf 6098 ebbe
-1.0861746 -1.438646 -0.5460607 2.0721762 -0.7612728 -0.93507946 -0.7433656 -0.96467227
-0.14901575 0.4029015 -1.082879 -0.9070148 0.34932414 -1.4711424 -1.5977259 -0.4601469

conv_enc_1_2.norm_1.running_var f4 [16]
00000000: d298 9d3f 9560 a33f 3a5f 9f3f 4af3 ae3f
00000010: b1c9 be3f 344d bf3f 1705 a93f e53e 9d3f
00000020: 3c51 b13f 891d 903f 711b f93f 913e 4b40
00000030: 3e36 3b3f 9ba9 8f40 1d5a 5740 308b f63f
1.2312262 1.276385 1.2450936 1.3667996 1.4905301 1.4945436 1.3204678 1.2284819
1.3852916 1.1259013 1.94615 3.1756938 0.7312964 4.489454 3.364875 1.9261227

conv_enc_1_2.conv_enforce.weight f4 [16, 16, 11]
00000000: 8dff cf3d 7559 3f3e 6ae9 b43d ee34 123e
00000010: d192 2c3e e40f 063e 8d75 f83d 7f97 c4bc
00000020: f414 17be adcc 86bd caa0 183d 6eff 4ebe
00000030: 6284 c63c ec5e a83d 4c94 6a3d b622 943d
00000040: 6320 2c3e 1cf0 3d3e b89b 183e cd78 7e3d
00000050: c752 b1bd e9ee 94bd 9db4 0a3e a893 073d
00000060: 2181 50bd 960e 93bc b320 a43d d923 3d3e
00000070: 0b66 bf3d 8340 8a3d 72b7 e63d 5af2 5a3c
00000080: db16 b63d 6e5c abbd 9aac d1bd 4537 a5bd
00000090: eca8 34be 6930 ecbd d6b1 e1bd afdd 133d
000000a0: 1001 bd3c 98d9 bbbb 4a70 733d 026c ad3d
000000b0: b898 06be c1f8 9ebd 2d9d 1e3d 3440 ddbc
000000c0: 6350 39bd fc57 dd3a df75 153d 4050 8cbb
000000d0: 58b9 81bc 845b 8abd 4317 c8bd 900c d43d
000000e0: 563d e13d 58bf e03d 849a 7cbc 81e4 11bd
000000f0: 6be9 c7bc 9d72 93bd 79fc acbd 3a7b ba3b
00000100: bf4f d2bc 09cf 513d cf82 223d 9fd5 493d
00000110: e48a b03d 197c 773e a9b4 a53c d650 4e3d
00000120: 49b3 853c bd40 aa3b 9dd3 843d 2c2c 123c
00000130: 39dc 95be 6ec9 f43d ee72 3f3c e48e d7bd
00000140: 76e0 46bd 8b88 0fbd 7620 be3a dc25 95bc
00000150: e7e1 6ebd 0aa3 f5bc db29 173c 6d2b 2d3c
00000160: 4aea b63c bc42 b63c 0d18 363d 8c16 59bb
00000170: 57e3 d4bb d1e1 6ebd d9b7 f3bc a99c 053d
00000180: fb42 443d 3889 483d 5498 21bb 485e b8bd
00000190: d098 9ebc c909 99bd 8aa0 46bd 4337 d5bb
000001a0: daa4 a13c 64b6 1cb9 8490 3a3d f40e df3c
000001b0: 1fde a6bd dc89 9abd 1aee eebd 3c8e 9bbc
000001c0: 411b bd3c 2f2e dfbd a546 5e3c 8659 6d3d
000001d0: 1e96 593e 652e 753e d858 fa3d a4b4 9abd
000001e0: e32f 93be 7dce 193e eb03 353e 9f98 9b3d
000001f0: 2126 083e a41b ed3d 008f 3d3d fe27 0c3e
00000200: 21b8 433e 3209 943e 84bd 593e a260 b13d
00000210: 7678 103e d364 d83d c58d d63d 8802 533e
00000220: f7bd 823e abcb 4b3e f94b 5b3e 42ad 563e
00000230: db78 fd3d 0d94 e13d 4623 83bc 20f9 013e
00000240: 384f ee3d 31f9 5d3e 9676 383e 778c 983d
00000250: 9f66 eb3d 99ca 093e 70e8 ec3d 53d9 833d
00000260: ba40 fd3b c742 ef3c 3491 3a3e ee14 3e3e
00000270: c286 463e 7279 493e ba6c 6d3e 0e76 653e
00000280: 7e9c 743e e584 613e 6de0 6c3e 8ac8 cb3d
00000290: 3285 a73d 46a2 7d3e b4f0 353e c0c4 3c3e
000002a0: 46f1 6e3e 0177 b6ba 0bde 49bc 385f e7bd
000002b0: cb97 a2bd f3be dc3c b734 c83c bc2c dc3c
000002c0: 198d ce3a f724 37bd 73ef 233d 31d0 38bd
000002d0: f310 6c3d 5157 0f3d e7ff 13bd 5f45 9dbd
000002e0: f50a 79bb 73e0 593d f104 433d ce66 0e3e
000002f0: 36c4 ad3d 58c4 9f3d 962d f23d 0316 033e
00000300: 900b a6bc 7561 83bd 92ab 41bc 1419 29be
00000310: 8598 a0bd 787c 70bd ed14 1ebd 9dbb 043e
00000320: 4383 323e 5960 1d3e 7e65 7c3b 3405 36bd
00000330: 0a62 c43c 6f57 a0bd 99f9 54be a795 c9bd
00000340: 2b15 69bd 20da b53d ac95 0fbc 44b9 90bc
00000350: 5aad 37be a058 4cbd 40e0 89bd 2edf d3bd
00000360: 0268 0ebd 5654 1f3d bf28 0dbe d929 f4bd
00000370: a99a 05be 5391 81be 910a e3bd fd1b 89bd
00000380: 5bb3 f5bc a9f9 583d fc58 533d 205b 3ebc
00000390: 7b91 813d d749 5b3d 6833 ad3c 5750 83bd
000003a0: 7559 b7bd 5261 56be b139 92be 08bc 4ebe
000003b0: 0b62 6bbd e219 fdbb ff25 09bd 8826 b6bb
000003c0: 0555 b03c afe6 703e 1115 80be 2d40 183e
000003d0: e6f7 693e a08a 2dbd 39e5 44bb bd4a a1bd
000003e0: eda4 8c3d 7dcd ef3d 3d34 d33c aa05 b4be
000003f0: 8e50 25be 75ca 443e a845 203e cdde 8abd
0.10156164 0.18686469 0.08833583 0.14278004 0.16852881 0.13092 0.12131796 -0.02399802
-0.14754087 -0.065820076 0.037262715 -0.20214626 0.024233047 0.0822123 0.057270333 0.07233183
0.1680923 0.18548626 0.14903152 0.062126923 -0.08658367 -0.07272131 0.13545461 0.0330998
-0.050904397 -0.017951291 0.080140494 0.18470706 0.09345635 0.06750586 0.11265458 0.013363445
0.08891078 -0.08367239 -0.10237999 -0.080671825 -0.17642564 -0.11532671 -0.11020248 0.036100086
0.023071796 -0.0057327263 0.05943326 0.084678665 -0.13144195 -0.0776229 0.038724113 -0.027008153
-0.04524268 0.0016887183 0.036489364 -0.0042820275 -0.01583545 -0.067557365 -0.09770062 0.103539586
0.10998027 0.10973996 -0.015417699 -0.03561831 -0.024403295 -0.07199595 -0.08446593 0.0056909593
-0.025672792 0.051222835 0.03967553 0.04927599 0.08620241 0.24168433 0.020227747 0.05037006
0.016320841 0.0051957057 0.064856745 0.008921664 -0.2926958 0.11952482 0.011685116 -0.10525301
-0.048553906 -0.035042327 0.0014505524 -0.01820653 -0.058320906 -0.02998497 0.009226288 0.010569436
0.022328515 0.022248618 0.04445653 -0.0033125011 -0.0064968276 -0.058320824 -0.029750751 0.032620106
0.04791544 0.048958987 -0.0024657445 -0.09002358 -0.019359976 -0.074725695 -0.048492946 -0.006506832
0.019731928 -0.00014945265 0.045547977 0.02722881 -0.08147835 -0.07545826 -0.11666508 -0.018988721
0.023084285 -0.10897481 0.013566648 0.057946704 0.21248671 0.2394348 0.12223977 -0.07553986
-0.28747472 0.15020175 0.17677276 0.075974695 0.13295795 0.11577538 0.046278954 0.13687131
0.19113208 0.28913265 0.212637 0.08661009 0.14108452 0.10566106 0.10476259 0.20606434
0.25535557 0.19901912 0.214157 0.2096453 0.12376567 0.110145666 -0.01600803 0.1269269
0.116362035 0.2167709 0.18013987 0.074486665 0.11494183 0.13456191 0.115677714 0.06437936
0.0077286633 0.029206647 0.18219453 0.18562672 0.19387344 0.19675234 0.23186007 0.22408316
0.23887822 0.22023351 0.23132487 0.09950359 0.08179702 0.24768934 0.17767602 0.18434429
0.23334226 -0.0013920964 -0.012321006 -0.112974584 -0.079391085 0.02694652 0.024439199 0.0268768
0.0015758603 -0.044712987 0.04002328 -0.04512042 0.05763335 0.03499538 -0.03613272 -0.07679247
-0.0038000916 0.053192567 0.047612134 0.13906404 0.0848469 0.078011215 0.11825101 0.12801366
-0.020269185 -0.06415073 -0.011820691 -0.16513473 -0.07841591 -0.058712453 -0.038594175 0.12962194
0.17432885 0.15368785 0.0038512642 -0.044438556 0.02397253 -0.07829177 -0.20798339 -0.09842997
-0.056904953 0.08879495 -0.008763712 -0.017666467 -0.17937222 -0.049889207 -0.067322254 -0.103453025
-0.03476716 0.03889879 -0.13785075 -0.11922044 -0.1304728 -0.25306186 -0.11086 -0.066947915
-0.02999275 0.05297247 0.051598534 -0.011618406 0.06326576 0.053537216 0.021142676 -0.06411808
-0.089526094 -0.20935562 -0.2855964 -0.20188916 -0.057466548 -0.0077240327 -0.0334835 -0.0055587925
0.021524915 0.23525499 -0.25016072 0.14868231 0.22848472 -0.04236853 -0.0030043854 -0.07875583
0.068673946 0.11709116 0.025781745 -0.3516057 -0.1614401 0.19217856 0.15651572 -0.06780777

conv_enc_1_2.norm_2.weight f4 [16]
00000000: 63bd fe3e 01c3 663f 0e31 103f e557 7c3f
00000010: 2072 2f3f d88d 623f a44f 0f3f ad17 873f
00000020: c64f 153f cdbd 963f e787 413f 9c7d 163f
00000030: 7050 683f 6f02 223f a3e7 7e3f 03be 3e3f
0.49753866 0.901413 0.5632485 0.98571616 0.68533516 0.88497686 0.55980897 1.05541
0.5832485 1.1776673 0.75597996 0.58785415 0.9074774 0.63284963 0.995722 0.74508685

conv_enc_1_2.norm_2.bias f4 [16]
00000000: b8bc aabe 5a41 ad3e 747c 58be 86c6 853e
00000010: 296a a4be ee9c bbbd 8040 8ebe c0e7 2e3e
00000020: 95ed 9bbe f79e 9abc 6a98 1e3d 767a a0be
00000030: 4657 8a3e 9cfc 643e 96eb 983e 8632 0f3f
-0.33347106 0.33838922 -0.21141225 0.26128024 -0.32112244 -0.09160791 -0.27783585 0.17080593
-0.30454698 -0.018874628 0.038719572 -0.3134343 0.2701971 0.22361988 0.29867238 0.5593647

conv_enc_1_2.norm_2.running_mean f4 [16]
00000000: 99da 863f 9307 e3be 7a0a 31bf 172d 72bf
00000010: 1dc6 b53f 20b9 dc3e 7e15 cdbe c33d cfbe
00000020: 77cb 023f 86fd 28bf ee82 e4bd 7bc9 633f
00000030: 13d2 21bf 7d65 21bf 2e5d 87bf fbd1 0bbf
1.0535461 -0.44341716 -0.6915661 -0.9460005 1.4201084 0.4310999 -0.4005546 -0.40476808
0.5109171 -0.66011846 -0.11157785 0.8897931 -0.6321117 -0.63045484 -1.0575311 -0.5461728

conv_enc_1_2.norm_2.running_var f4 [16]
00000000: 29dd db3f 4b7f 1640 d791 a740 b311 2140
00000010: 1eef 1840 855c 1c40 a4eb 2e40 365d ea3f
00000020: 79f1 1c40 fe27 0240 8ede 4040 8aca 0340
00000030: 5b77 0b40 34d4 4440 0a48 2340 a073 3540
1.7176868 2.3515193 5.2365527 2.5167053 2.3895946 2.443147 2.7331324 1.8309696
2.4522383 2.033691 3.0135837 2.059237 2.1791599 3.0754519 2.551272 2.8351822

conv_enc_2_3.conv_entry.weight f4 [32, 16, 11]
00000000: 4cd7 b83d 5661 b7bc fa7d 653c c485 d73c
00000010: 2bd2 843c 46d0 e7bc b32b 6ebd c4c6 5cbd
00000020: 1ba8 473c 7af8 bfbc b8b5 bcbd d161 273c
00000030: 4077 233d 5be2 a3bc f310 e1bb ca25 febd
00000040: df2c e9bd 082a 97bd d666 c4bd 218e 0abd
00000050: 34a2 97bd c6c9 e4bd fa17 2d3e f4d6 063e
00000060: d18a ea3d 8874 4f3e 0eaa 3a3e 5be6 4e3e
00000070: 3a47 473e fcaa 013e 319d 223e bd36 403e
00000080: f50d 663e 7015 30bd 4c22 a23d 8dde 3dbb
00000090: 8277 3d3a 9460 47bc b911 9fbd beca 3dbd
000000a0: a5cf febd f4aa 1dbd 2a73 04bd f61e 663d
000000b0: ad1b 88bd a376 c8bd 1b25 a6bd 6b04 0dbe
000000c0: 1dfc 51be 1f9b 6ebe a085 2fbe c57f 80be
000000d0: b675 5ebe 5291 0ebe 63f6 77bd 3cb5 2d3e
000000e0: bc98 ef3d 1d8d 923d fa02 003e 4f8f ff3d
000000f0: 0a98 393e c9ed 2e3e 7a0a 813e 78cd ff3d
00000100: 4f23 0a3e 0a19 8c3d f53d 5c3e 021f 6d3e
00000110: dc2a 053e 4cdf 343e 282e 223e 1c1d 293e
00000120: 0e77 133e c185 2e3e 5fcd e53d ca20 093e
00000130: 13b9 623e b038 db3d b54d d33c daa9 0abd
00000140: 2f31 8ebc 4ff1 8d3d 49ec de3c cdab 74bc
00000150: 1e53 bf3d 434c 973d 5b36 e4bc 8361 b4bd
00000160: 4f4c 80be b733 82be 3de9 99be 7efb bcbe
00000170: 1f3f adbe e522 89be 0ef2 c6be c025 d1be
00000180: 3baa b3be fd1b acbe e652 b6be bdec 85bc
00000190: cc69 34bd 4a1a dfbd dd12 a3bd a51e 43bd
000001a0: 5b8e edbc 3420 c03c 8cde 8d3d 0cb7 6dbd
000001b0: 8955 20be 2686 05be bd19 e73d 983d 653c
000001c0: 8c21 c13d 0d79 153e c5dc a23d e241 833d
000001d0: 2dfa 2b3e ec99 e23d de1b 063e 8362 003d
000001e0: 8d93 003e 5b7b bcbd d794 e9bd ee0a 7dbc
000001f0: 94cd 95bd fe42 a4bd b627 79be 499a 4fbe
00000200: 4f6c 47be 4571 02be c71b d9bd b14e ccbd
00000210: dadd 9fbc 98d5 8fba 6e59 31bb c14f d639
00000220: 7d02 ba3c 5061 bfbc cb4e 45bd d400 d6bd
00000230: ca84 71bd 5818 d0bd 83a5 8dbd 1e94 b6bc
00000240: 3d51 cbbc 9bad 963c 5f75 8ebd 69e5 60bd
00000250: 3e87 2fbc e5ca daba 758a c8bc 9f56 c53a
00000260: 3b1b 2b3c f3d8 d5bd 4d12 db3d 6370 2f3e
00000270: 41f3 ee3d a23f d53d 995f 0e3e dbab c23d
00000280: cc72 bf3c b200 16bd 460f bb3d 615c 8d3d
00000290: 2570 bb3d 2e14 f4ba bfbe efbd 9299 a7bd
000002a0: 3ba5 27bd b392 c8bd 2153 90bc 58de 1e3d
000002b0: 0696 0d3c 5627 5fbd ea33 b9bd 1b10 ffbc
000002c0: de9c 0abe cd3b 58be ffe1 b1bd 5ec9 debd
000002d0: fed1 2fbe db51 e0bd 4596 04be 2306 d7bd
000002e0: faf9 02be 272b 0cbe 11e4 8ebd 86b6 acbd
000002f0: 565d b2bc e512 97bc 6be4 de3b 04a8 7dbd
00000300: e94b d73c cf0b 973d adf0 aebc dfb0 a43d
00000310: ce3d 0fbe a44e 2ebe d3e1 d5bd d8da 83bd
00000320: 7e1c 02bd 05d8 0dbd 0c6c 78bc 1329 a0bd
00000330: 45c1 81bd faf7 e4bd f3e2 74bd 4922 4dbd
00000340: 831f dbbd 6bda e8bb e353 803d 527c 4ebc
00000350: 3727 0e3d ab2d 5f3d 608c 84bb 29a5 5b3d
00000360: f278 a43d 028b 213d aece e0bd 0b73 1abe
00000370: 717c bfbe 1cb4 9bbe 2e4e 91be 7109 afbe
00000380: f35b a2be 8d57 a1be 8753 91be a7ff 79be
00000390: 1d70 91be b55b b3be 3125 a4be 5048 1ebd
000003a0: 51e0 33be eff9 02be 17a6 89be 42df c3bd
000003b0: 3342 ed3c 8480 01be e259 97be 759b 8ebe
000003c0: fd0b 96bd 6c17 603c a2f8 413d e770 883d
000003d0: 5764 91bb 9401 273d a9f9 883d 117c 98bd
000003e0: 6cdc 133b 6f11 d5bc ed8d 8c3d 85ce 413d
000003f0: c11b bebd c383 8dbd 59b5 a1bc 664d fd3c
0.090254396 -0.02238528 0.014007086 0.026308902 0.016213497 -0.028297555 -0.058147144 -0.053900495
0.012186076 -0.023433913 -0.092143476 0.010216192 0.039908648 -0.020005396 -0.0068684756 -0.124095514
-0.113855116 -0.07381064 -0.09589927 -0.03382695 -0.07403985 -0.11171298 0.16903678 0.13167936
0.114522584 0.20259297 0.18228933 0.20205061 0.19460765 0.12662882 0.15880276 0.18770881
0.22466262 -0.042989194 0.07916698 -0.0028971762 0.0007227586 -0.012169022 -0.07767052 -0.04633593
-0.12441949 -0.03849311 -0.03233639 0.05618187 -0.06645904 -0.09788253 -0.08112546 -0.13771217
-0.2050633 -0.23301362 -0.17140818 -0.2509748 -0.2172459 -0.13922623 -0.060537707 0.16963667
0.11699054 0.071558215 0.12501135 0.12478506 0.18124405 0.17082895 0.25203305 0.12490362
0.13490032 0.06840713 0.2150801 0.2315636 0.13004631 0.17663306 0.1583792 0.1651501
0.14400885 0.1704321 0.11220812 0.13391414 0.22140913 0.10704172 0.02579389 -0.03385339
-0.017357437 0.069307916 0.027212279 -0.014933539 0.09342025 0.07387593 -0.02785795 -0.088076614
-0.2505822 -0.2543008 -0.3006076 -0.36910623 -0.3383722 -0.26784435 -0.38856548 -0.40849113
-0.35090813 -0.33615103 -0.3561012 -0.016348237 -0.04404621 -0.10893686 -0.07962582 -0.047636647
-0.028998544 0.023452856 0.06927213 -0.058035895 -0.15657629 -0.13039455 0.11284206 0.013991736
0.09430227 0.14596958 0.07952265 0.064090505 0.16794653 0.110645145 0.13096568 0.031343948
0.12556286 -0.09203216 -0.11405342 -0.0154445 -0.073146015 -0.0802059 -0.24331555 -0.20273699
-0.1947491 -0.12738521 -0.10601001 -0.09975947 -0.019514967 -0.001097369 -0.002706136 0.00040876682
0.022706265 -0.023361832 -0.048170846 -0.10449377 -0.05896453 -0.10160893 -0.069163345 -0.022287425
-0.02481901 0.018393328 -0.069559805 -0.054906283 -0.010713397 -0.0016692547 -0.024480084 0.0015055722
0.010443504 -0.104417704 0.1069685 0.17132716 0.11667491 0.104125276 0.13903655 0.09505435
0.02337017 -0.036621757 0.091337726 0.069023855 0.09152249 -0.0018621737 -0.11706304 -0.08183588
-0.04092906 -0.09793606 -0.017617764 0.038786262 0.008641725 -0.054480873 -0.09043105 -0.03113561
-0.13536403 -0.21116562 -0.086856835 -0.108782515 -0.1716995 -0.10953113 -0.12947948 -0.10499217
-0.12790671 -0.13688336 -0.06977094 -0.08433251 -0.021773022 -0.018441627 0.006802132 -0.06192781
0.026281314 0.07375299 -0.021354998 0.08041548 -0.1398842 -0.17022187 -0.10443463 -0.064382255
-0.031765454 -0.03462984 -0.015162479 -0.07820334 -0.06335691 -0.1118011 -0.05978675 -0.050081525
-0.1069937 -0.0071061156 0.06266 -0.012602882 0.034705367 0.05448691 -0.0040450543 0.053624306
0.08030881 0.03943921 -0.10976921 -0.15082948 -0.3739963 -0.3041085 -0.2837996 -0.3418689
-0.31710777 -0.31512108 -0.2838404 -0.2441393 -0.28405848 -0.35030904 -0.32059625 -0.03864318
-0.17566039 -0.12790655 -0.2688453 -0.095640674 0.02896223 -0.12646681 -0.29560763 -0.2785298
-0.07326505 0.013677459 0.047356255 0.066621594 -0.0044370103 0.04077299 0.06688244 -0.07445539
0.0022561802 -0.02600929 0.06863008 0.047316093 -0.092826374 -0.06909897 -0.019739794 0.030920696

conv_enc_2_3.norm_1.weight f4 [32]
00000000: d994 a53e d67d f13e f008 4b3f af77 ea3e
00000010: fc4d 123f 88fd 3a3f 5ae6 f03e 8252 6b3f
00000020: 7081 233f 28da ae3f 37fa c93e 0358 983f
00000030: 3c0b 883f 95d3 a63e b221 373f 6d6f c43e
00000040: 034b 223f a9ef 1f3f f54e ef3e d268 a83e
00000050: 5b3e 403f 33a6 033f 72d4 093f dba3 c93f
00000060: 15a7 123f 4087 a43f e2bd 1b3f 1e77 f83e
00000070: caef 983e 1c98 0a3f 3f91 033f f087 483f
0.32340124 0.47166318 0.7931051 0.45794436 0.57150245 0.7304311 0.47050744 0.9192277
0.6386938 1.3660326 0.3944871 1.1901859 1.0628428 0.325833 0.7153579 0.3836626
0.6339571 0.6247507 0.46739927 0.32892472 0.75095147 0.51425475 0.5383979 1.575313
0.57286197 1.2853775 0.60836613 0.4852838 0.29870445 0.5413835 0.513935 0.78332424

conv_enc_2_3.norm_1.bias f4 [32]
00000000: 3035 fcbd fbbe 0dbe b6a5 b7be 15d0 f73c
00000010: df70 b9bb cd18 2bbe 38ee 90be 2d43 393d
00000020: 454c a9be c9ed ec3d 0d63 83bd 36f5 5d3d
00000030: 0675 6ebe 5b2a 8ebe d90c 84be f1a2 3abe
00000040: 4b6d 97bc 6dea 6dbe 23b5 1abe 8209 90be
00000050: 7725 8cbd 9779 50be 5183 27be ffbc 80be
00000060: cdbe 7fbe 023c f9bb eba0 34be 9963 37be
00000070: f65a 83be b24e 29be 80ee b7be 591d fbbe
-0.12314832 -0.13842385 -0.35868615 0.030250588 -0.0056592072 -0.1670868 -0.28306746 0.04523008
-0.33066002 0.115687914 -0.06415377 0.05418893 -0.23286828 -0.2776669 -0.25791052 -0.1822622
-0.018484732 -0.23233958 -0.1510816 -0.28132254 -0.06843083 -0.20358883 -0.16358687 -0.25144193
-0.24975128 -0.0076060304 -0.1763951 -0.17909087 -0.25655335 -0.16533926 -0.3592415 -0.49045828

conv_enc_2_3.norm_1.running_mean f4 [32]
00000000: 6980 d1be f933 76bf 55e7 16c0 44c2 8cbf
00000010: 38ff 2ebf c420 ab3e aeb9 29bf ebe3 b3bf
00000020: c959 6bbf e3c5 5dbf 6a6c 05bf 5ec9 a73d
00000030: 40e5 88bf e63f d1be 4ada b03f 6d50 3b3f
00000040: 969d 4abf e6e9 e73e 24b5 33bf 1e4d 9ebf
00000050: 1827 89be a868 97bf fead b2bf 21c1 05bf
00000060: dde8 ae3f 2b7e 88be 1363 c1bf 0e87 bebc
00000070: b826 e9be 8eaa 92bf a2db 4ec0 07a6 f03f
-0.40918282 -0.96173054 -2.3578694 -1.0996785 -0.6835818 0.33423436 -0.6629895 -1.405393
-0.91933876 -0.86630076 -0.5211855 0.081927046 -1.0694962 -0.40869063 1.3816617 0.73169595
-0.7914671 0.45295638 -0.70198274 -1.2367284 -0.2678764 -1.1828814 -1.3959348 -0.52247816
1.3664814 -0.2665876 -1.510836 -0.023257758 -0.45537353 -1.1458299 -3.2321553 1.8800668

conv_enc_2_3.norm_1.running_var f4 [32]
00000000: ffd9 9c40 c427 0b41 3448 0b40 4a8e ad40
00000010: 9985 9040 0215 0d40 2989 7a40 ff03 fc3f
00000020: b150 e63f af0e 2040 3bf1 0041 f3bf 2d40
00000030: 412a 0f40 0937 3e40 f5b8 dd3f 4ced 4d40
00000040: c1e4 0c40 bc70 2540 1630 a740 6621 6c40
00000050: e979 e73f 5f8a 0f40 36da a540 e01b 3740
00000060: 73c2 1a40 8198 0340 d076 a540 e9e0 3540
00000070: 16f0 6940 22f1 0d40 170f 2d40 5237 0640
4.901611 8.697208 2.176282 5.4236193 4.5163083 2.2044072 3.9146216 1.968872
1.7993375 2.5008962 8.058894 2.7148407 2.236954 2.972109 1.732207 3.2176085
2.201462 2.5850058 5.22462 3.6895385 1.8084079 2.2428205 5.182887 2.8610764
2.4181182 2.056183 5.1707535 2.8418524 3.6552787 2.2178426 2.704046 2.0971265
